opensr_test/denoiser/weights/RealNoisyEstimator.pth (torch, 172221 bytes, 7 tensors)

dncnn.0.weight f4 [64, 3, 3, 3]
000000 08 f3 77 3c 5d 2f 74 bc e0 3a 73 3c e3 13 a3 bb
       0.015133627 -0.01490387 0.01484558 -0.004976736
000010 32 6b 14 bd c4 66 82 3d 6b b8 b6 bd ae 21 55 bd
       -0.036235042 0.06367257 -0.08921894 -0.052034073
000020 d6 76 c0 3d 94 da 81 3c ab e1 9f bc 4e 8e 95 3c
       0.09397666 0.015851296 -0.019516787 0.018256333
000030 b5 17 4f bc a0 18 ec bc 79 9b 76 3d 58 f3 a1 bd
       -0.01263993 -0.028820336 0.060206864 -0.07907742
000040 1b a7 1a bd 65 b2 da 3d d3 d0 e9 3c e5 ca 2d ba
       -0.03775702 0.10678557 0.028541958 -0.000662966
000050 35 ec e6 bb b5 d8 56 3c b0 ab 1d bc 7d 2b b6 bb
       -0.007047201 0.01311319 -0.009623453 -0.0055593834
000060 c6 5f ff bc a7 a2 21 40 3c 97 23 c0 e9 63 00 3d
       -0.031173598 2.5255525 -2.5561056 0.03134528
000070 00 23 03 bd 76 42 b0 38 74 bd 90 3c 6d fe bc bd
       -0.0320158 8.404713e-05 0.017668463 -0.09228215
000080 2b c3 80 3c 93 cb a5 bd 8e 66 86 be cd 37 f0 bd
       0.015718063 -0.08095469 -0.26250118 -0.11729393
000090 c4 36 8a be 8d 9c e8 be 8b 96 c2 be 5a f1 bc be
       -0.26994908 -0.4543194 -0.3800548 -0.36902887
0000a0 60 5f 16 bf 71 df eb be c0 33 85 be 19 08 1c 40
       -0.5873928 -0.4606891 -0.26016045 2.4379942
0000b0 cd bb ed be a1 88 32 3d d1 c1 73 bd 17 b9 c4 bc
       -0.46432343 0.04358733 -0.05951101 -0.024014039
0000c0 aa 5a 7e 3c 3e 22 f2 bd 4b 56 eb bc 82 b0 f7 bd
       0.015524546 -0.118229374 -0.028727671 -0.12094213
0000d0 21 16 83 be 5e af 0f be 00 aa 2a 3d be 3a ba 3c
       -0.2560282 -0.14031741 0.04166603 0.022733089
0000e0 17 1a 49 3d 53 e6 e1 bc b0 1b aa bd 37 e6 a0 bd
       0.049097147 -0.027575647 -0.08306062 -0.0785641
0000f0 32 45 03 bd 23 4c d1 bc 11 38 9f 3d ac 37 e6 3b
       -0.03204841 -0.025549 0.07774366 0.0070256796
000100 f2 0e 84 bd 24 7f 02 bf 0a c5 a2 bd 36 3c 84 be
       -0.06448163 -0.5097525 -0.079477385 -0.25827187
000110 e3 0b af bf be 57 3b bd aa 29 35 3f d5 33 e9 3f
       -1.3675503 -0.045737974 0.707667 1.8218943
000120 4a 8e 86 3d 12 8c 0f 3d f0 35 82 3d 37 08 18 bd
       0.06570108 0.03504569 0.06357944 -0.03711721
000130 03 8c e4 bd 30 59 e4 bd 5a 3b 28 bd 20 2c f4 bc
       -0.111595176 -0.11149824 -0.041072227 -0.029806197
000140 22 25 fa 3c 48 20 a2 bc 23 66 d9 3d 79 50 6e 3d
       0.030535284 -0.019790784 0.10615184 0.058182213
000150 75 e0 96 3d ee 0f 02 be 87 8a c0 bd 68 0e 05 3d
       0.073670305 -0.12701389 -0.09401422 0.032484442
000160 da 2c e6 bd b2 3d de bb 89 bb a8 3f 4a 8e da bf
       -0.112390235 -0.006782257 1.3182231 -1.7074673
000170 47 71 65 3e f7 79 d5 bf 44 18 f2 3f 59 98 25 be
       0.22406493 -1.6677846 1.8913655 -0.16171397
000180 af 17 b2 3e ac 09 66 be 89 b1 4c 3d 0e 76 23 b9
       0.34783694 -0.22464627 0.049974 -0.0001558887
000190 6f 91 c4 3d b6 9f 8b 3d d6 b5 95 3d 9a f1 e5 bd
       0.09598052 0.06817572 0.07310073 -0.112277225
0001a0 1d 65 aa bd 64 9c 3b 3d 55 ff b7 bd 7c ea fc ba
       -0.08320067 0.045803443 -0.089842476 -0.0019295956
0001b0 1e c4 97 3e 51 d6 ae 3f 04 d9 4f 3e e3 4e 20 bf
       0.29641813 1.3659154 0.20297629 -0.6262037
0001c0 81 a2 13 be 19 47 ac be 52 40 e9 be c4 19 b6 be
       -0.14417459 -0.33647993 -0.45556885 -0.35566533
0001d0 79 3e 1c be 85 a1 87 3d 10 c8 a6 3f 4f 59 6f 3e
       -0.15258206 0.06622604 1.3029804 0.23373912
0001e0 e8 5e 04 bf a2 1b be bc d2 41 40 be 8a 60 c7 be
       -0.51707315 -0.023206536 -0.18775108 -0.3894084
0001f0 08 2c 6d be c3 bc f2 bd 39 1e 26 3e d3 d4 01 3f
       -0.23161328 -0.1185241 0.16222467 0.5071537
000200 13 19 46 3e ca a7 75 be 0f c3 4e be 99 20 4c be
       0.19345503 -0.23989788 -0.20191596 -0.1993431
000210 cd d9 41 bd bd d7 38 be 2f cb 89 bd 35 19 d2 bd
       -0.04732685 -0.18051048 -0.06728207 -0.10258714
000220 77 c1 a3 bd e5 7d 86 3c 5b dc ca be e4 43 ba bf
       -0.07995885 0.016417453 -0.39621243 -1.4551969
000230 a6 ac 23 be f4 a0 14 40 0c 13 4a bd 3b 6f be bc
       -0.15983829 2.3223238 -0.04933457 -0.023246398
000240 1e d6 4c 3d b3 d3 18 3e db 5b c2 3c 83 c8 9e bc
       0.050008886 0.14924507 0.02372544 -0.01938272
000250 3d ad c1 3e 0f 1e 14 3e 13 4f 45 bf e7 03 3f bd
       0.37827483 0.14464591 -0.7707378 -0.04663458
000260 ac 18 54 bd ac 7a 14 3d 25 93 1a 3e ec 0f dc 3c
       -0.05178134 0.0362498 0.15095194 0.02686306
000270 98 20 05 3d f3 85 ee 3e 2f b1 22 3e bf eb 35 bf
       0.032501787 0.4658657 0.15887903 -0.71062845
000280 79 27 36 bd 1f 2f 3c bd 59 c5 94 bd 70 51 3c be
       -0.044471238 -0.045943376 -0.072642036 -0.18390441
000290 64 13 2f bc d9 d0 60 be ee 77 b9 be 38 d9 e1 3c
       -0.010685775 -0.21954669 -0.36224312 0.027569398
0002a0 3c 80 80 bd 2a 95 21 3d 83 b3 46 3f a6 18 d9 3d
       -0.06274459 0.039448895 0.77617663 0.106004044
0002b0 e8 77 1a 3e 7c 4b 3c 3d bf 57 14 3e 7e 11 ab 3f
       0.15084803 0.045970425 0.14486597 1.3364713
0002c0 6b 18 50 bd 77 eb 79 3e 2c 17 61 3e 84 dc 0e c0
       -0.050804537 0.24406229 0.21981496 -2.2322092
0002d0 ec bb e0 bc a5 5b 24 be af 7c 06 bd 32 95 27 be
       -0.027433358 -0.16050585 -0.03283375 -0.16365507
0002e0 a4 5c 89 be 47 b1 a9 3c 07 ca b8 bb 8d 69 c1 3d
       -0.26828492 0.020714415 -0.005639318 0.0944396
0002f0 28 e0 0d 3f 53 2e 90 bd cb 5d b2 be 00 23 46 bd
       0.5542016 -0.07040086 -0.34837183 -0.048373222
000300 fb ee e5 3d 65 fc 2e bd f1 a8 b4 3d eb ee 9d 3d
       0.112272225 -0.04272117 0.088212855 0.077115856
000310 19 bd a2 3c 5d a4 e1 3d 0e 59 10 be c9 11 fe be
       0.01986556 0.11017678 -0.14096472 -0.49622944
000320 f5 a3 29 be 98 ff e3 ba 91 87 35 be 9b 9e 2a bd
       -0.16566451 -0.0017394898 -0.17727496 -0.041655164
000330 de 41 e5 3c c6 a8 56 bd 02 1b cd 3c a7 57 ab be
       0.02798551 -0.05240705 0.025037292 -0.3346531
000340 2f 30 1b 40 18 7c e2 be 0d 1f 4a be 6b 95 79 bf
       2.424816 -0.442353 -0.19738407 -0.9749362
000350 65 bf 9f be 5c 57 06 be 35 34 5c be 8d 8f 81 be
       -0.3120071 -0.13119262 -0.2150429 -0.25304833
000360 3e 52 ff 3d 66 7e 73 3f ad 95 90 3f 8e 36 e0 3d
       0.12466858 0.95114744 1.1295677 0.109479055
000370 f8 63 aa bd e2 24 1c bd d9 be 03 bd 58 b8 ee bf
       -0.08319849 -0.03812111 -0.03216443 -1.8650007
000380 43 b0 30 be 3c 56 74 be 35 17 ab be 6e fc 07 bf
       -0.17254739 -0.23861021 -0.33416143 -0.5311955
000390 08 29 80 bd 0e 39 13 3d 10 bb f4 bd ad 03 84 3e
       -0.06257826 0.035943083 -0.11949742 0.25784054
0003a0 66 e2 0e 3f 22 a2 4d 3e e7 0f 14 be d1 4b 60 be
       0.55814207 0.2008138 -0.14459191 -0.21903922
0003b0 3a 0c bd be 91 2a 1a bd 39 3d 89 3d 89 f6 88 bd
       -0.3692339 -0.03763825 0.067011304 -0.06687648
0003c0 aa 5d 7a 3e 87 94 d8 3e 5c ec 21 3e 0a c5 0d 3d
       0.24449793 0.42300817 0.1581282 0.03461174
0003d0 d4 62 47 be bd 1c 8c bc 33 bb 0d 3e 40 b2 bd 3c
       -0.19471294 -0.017103547 0.13840942 0.023156285
0003e0 d8 4a 13 3d 17 36 d1 bc 9b 11 e1 bc da 74 0b bd
       0.03596005 -0.025538487 -0.027474215 -0.034046985
0003f0 aa b4 9a 3d 32 71 1d be 66 85 91 bb 7d 67 00 3e
       0.0755399 -0.15375212 -0.004440951 0.12539478

dncnn.2.weight f4 [64, 64, 3, 3]
000000 23 b7 09 3e 40 1b 82 3e ff c9 13 bd 08 47 28 bd
       0.13448767 0.25411415 -0.03608131 -0.041083366
000010 fb 4e 45 3e 69 aa 12 be 33 29 30 3d 77 d5 33 3c
       0.1926841 -0.14322819 0.04300804 0.010976187
000020 5f f6 1a be 1e fb 33 bd 67 ec 3e bd 34 12 50 be
       -0.15133046 -0.043940656 -0.04661217 -0.20319444
000030 3d 65 0e 3c ca 0f 54 3c a2 01 b4 3d b7 40 ba bd
       0.008691129 0.0129432175 0.08789374 -0.090943746
000040 c4 cc 7d bd 3c 5d a5 bd ec c4 1b be 88 84 4a be
       -0.061962858 -0.08074424 -0.15211838 -0.19777119
000050 48 08 ba bd 62 ab 97 3e f3 e1 d6 3d 54 bf 9d bc
       -0.09083611 0.29622942 0.10492315 -0.019256271
000060 46 9a 96 bc bc 09 38 3d c0 1f ff 3b d4 45 45 be
       -0.01838411 0.04493116 0.0077857673 -0.19264919
000070 42 46 2d 3e fe e9 45 3d 6d 0c 9d 39 72 fd 13 3d
       0.16921332 0.048318855 0.00029954631 0.036130376
000080 60 e5 0e bc a4 c7 3b 3e 59 af 0a 3d 33 9c 9a be
       -0.008721679 0.18337876 0.03385863 -0.30197296
000090 88 6e 8d be 14 c4 16 bd 67 6b 8f be 54 f8 8d 3d
       -0.2762339 -0.03680809 -0.2801163 0.069321305
0000a0 5e 78 96 3e d0 5b 1d 3e c6 5e a5 3a 0c 15 94 bd
       0.29388708 0.15367055 0.0012616746 -0.07230577
0000b0 52 54 5a be 18 6c 51 be c3 93 89 bd 35 07 b3 be
       -0.21321228 -0.2045139 -0.067176364 -0.34966436
0000c0 ba b5 f8 bd 97 c0 8a bd 63 ba 5c be 8b 63 c8 bd
       -0.121440366 -0.06775015 -0.21555476 -0.09784611
0000d0 ef 1c 6a 3d 26 52 53 3c 4a 7f b4 bd 00 1f c9 3d
       0.0571565 0.012898004 -0.08813341 0.09820366
0000e0 e9 84 e2 bc 81 65 3c be 62 89 4e be 1f f6 0f bd
       -0.027651267 -0.18398096 -0.20169595 -0.03514683
0000f0 d9 86 e6 bc ad 23 94 3c cc 68 41 3e a3 f1 ed 3d
       -0.028140472 0.018083418 0.18887633 0.11618354
000100 8c 44 91 bd c1 6b be 3d 79 7e 4f 3e 14 b2 43 3e
       -0.070931524 0.09297896 0.20263089 0.191109
000110 b0 a4 f7 bc 6c f3 23 3e 6b 87 80 3e 36 5c 06 be
       -0.030229896 0.16010827 0.25103316 -0.13121113
000120 fe 41 8c 3c 2a 48 b8 3c bd 0b 8a bd 90 92 97 3d
       0.017121311 0.022495348 -0.0674052 0.074010015
000130 fe 82 56 3d d6 09 c1 3c 9f 8a 41 be 2f 51 6c bd
       0.052371018 0.02356426 -0.18900536 -0.05769461
000140 12 de 22 be 18 94 31 3e fc 00 9e 3c d1 8c 27 3e
       -0.15905026 0.1734165 0.019287579 0.16362311
000150 29 f0 1e 3e f1 e3 a5 bd 9e eb 08 be 6c 3b 58 bd
       0.15521301 -0.08100117 -0.13371131 -0.052791044
000160 7c 0e 50 be 74 5c c7 be b3 70 1a 3d 39 d1 6a be
       -0.20318025 -0.38937724 0.037705135 -0.22931375
000170 20 ea 5a bc 7b af 21 be da 0d f7 bb 20 66 a0 3d
       -0.013361484 -0.15789597 -0.007539493 0.07831979
000180 8b d4 b4 3d 97 32 0d be ba 40 84 3e 26 31 c6 bd
       0.08829602 -0.1378883 0.25830632 -0.09677343
000190 16 f3 0f be 3e ab f7 bd 56 a4 17 3e 2f 68 27 3e
       -0.14057574 -0.12093209 0.14808783 0.16348337
0001a0 d8 0f 6a bb 22 1b a8 bd 71 38 01 be 50 81 85 bd
       -0.003571501 -0.082083 -0.12619187 -0.06518805
0001b0 9d 9e 14 3e 69 63 81 3e 56 34 5a 3e be d4 d8 bd
       0.14513631 0.25271156 0.21309027 -0.10587452
0001c0 29 69 89 bc c8 9b 39 3e cf 46 cd 3d 44 a1 09 be
       -0.016773777 0.18125832 0.10023271 -0.13440424
0001d0 e2 4c 5e be b7 14 4a 3d 64 42 5c be 1e 03 5b bc
       -0.21709016 0.04933616 -0.21509701 -0.013367442
0001e0 4d 7b 50 3e f7 c4 2a be ea b6 52 be 10 d4 a1 3d
       0.20359536 -0.16676699 -0.20577589 0.07901776
0001f0 61 05 5e be fc ef 1b be c4 72 c4 3b 5a d6 d1 3d
       -0.2168174 -0.15228266 0.0059951264 0.102459624
000200 27 99 59 be 96 aa 2f 3e 72 1d 22 bd 62 8a 30 3d
       -0.21249829 0.17154917 -0.039578862 0.043100722
000210 34 50 6b be 89 22 25 bd de 2b 24 bd 68 4d 87 bd
       -0.22979814 -0.04031614 -0.040080898 -0.06606561
000220 d7 95 c2 3b 97 5a a9 bc 98 14 c5 bd cc 7e c0 3d
       0.0059382725 -0.02067308 -0.096230686 0.093991846
000230 97 87 2d 3d ef 31 0b 3e a1 e5 08 be 6d 9c 20 be
       0.042365637 0.13593267 -0.13368846 -0.15684672
000240 29 5b 54 be 7a 68 44 be 5f fc f0 bd 65 a4 b2 bd
       -0.207379 -0.1918048 -0.11766886 -0.08722762
000250 cb f3 b1 3c 94 98 18 3e e2 d6 83 3c fb 48 4e 3e
       0.021722695 0.14901954 0.016093675 0.20145027
000260 e3 b7 52 3e 1d d3 11 3e 9c c6 2d 3e 89 7c 0a 3d
       0.2057796 0.1424069 0.16970295 0.033810172
000270 6a cd 8d 3c 21 34 8e 3e e9 4a b5 3c 93 b3 c2 bc
       0.017309863 0.27774146 0.022130447 -0.023767268
000280 ee db 9e 3d c4 34 3f 3d 85 57 88 be 1c d2 0d 3d
       0.07756792 0.04668118 -0.26629272 0.034624204
000290 10 44 3a be 2d a3 18 bd 39 2a ce 3e 73 52 7a bd
       -0.18190026 -0.03726499 0.40266588 -0.061113786
0002a0 2c cf 44 be cf 21 35 3e a0 ff 5b be 3f 72 91 3d
       -0.19219655 0.17688678 -0.21484232 0.07101869
0002b0 60 d2 c9 3d b4 d6 8f be cf dc 04 3e c7 98 cd 3e
       0.09854579 -0.28093493 0.12974857 0.40155622
0002c0 b5 91 a0 bd bb 04 a0 be 2c 9c 0a 3d 7e 9c 93 be
       -0.078402914 -0.3125361 0.033840343 -0.28830332
0002d0 21 e3 fb 3d 6c 00 98 3d 08 9f 02 3c fe e1 81 3d
       0.12299181 0.074219555 0.007972486 0.06341933
0002e0 9b 08 83 3e 04 4b 24 be c3 59 40 bd 00 09 3e 3d
       0.25592503 -0.16044241 -0.046960603 0.0463953
0002f0 22 dd 90 be 29 58 ff bd c5 1e 95 3e cd db ee 3c
       -0.2829371 -0.12467987 0.29125038 0.029157544
000300 41 e9 d4 3d 89 d1 23 3e 04 8a 0c 3e df b1 8d bd
       0.10396052 0.159979 0.13724524 -0.06918692
000310 f9 db 29 3e 8e 1a be 3d 96 91 a2 bd c5 cd c3 bd
       0.16587819 0.09282409 -0.079379246 -0.09560732
000320 c3 e4 1b bc 0f 51 ac bd 0b 54 f8 3c 47 75 0a 3d
       -0.00951499 -0.08413898 0.030313512 0.03380325
000330 be 55 e9 bd c1 c1 3f 3d 25 58 2b be a7 5a 5d 3d
       -0.11393307 0.046815637 -0.16732843 0.05404153
000340 65 bc 4e 3e 56 e1 b5 bd 07 5a 7e 3e 49 57 4a 3e
       0.20189054 -0.0888087 0.2483903 0.19759859
000350 94 0e d4 3d d4 58 cf bd f4 4a eb 3c 5c d1 d1 bd
       0.10354343 -0.101243645 0.028722264 -0.1024501
000360 18 32 15 3b 10 97 2f 3e 76 3f 2e 3e 90 6b 15 3e
       0.0022765454 0.1714747 0.17016396 0.14591813
000370 71 84 31 be 05 a7 0e be 9d eb cb 3d 41 ae 17 be
       -0.17335679 -0.139309 0.09957049 -0.14812566
000380 67 ed f6 be bc fe 2d 3d bb 43 07 bd 5b bf a7 bb
       -0.48228 0.04247926 -0.033023577 -0.005119247
000390 4c 98 77 3d c2 2a 10 be b0 a8 bc 3a 01 2d 54 be
       0.060447976 -0.14078811 0.0014393535 -0.20720293
0003a0 f4 09 ca be b1 e5 7d bd 0f f5 aa bd 40 32 ca 3d
       -0.3946072 -0.06198663 -0.083475225 0.09872866
0003b0 c4 c8 24 3d 66 1b e0 bc 38 c6 55 bc 29 90 13 3d
       0.040230528 -0.027356815 -0.013047747 0.036026154
0003c0 f5 ae 5e bc 1c 99 90 bd 6c b2 b1 bd 60 8f 99 bd
       -0.013591518 -0.07060453 -0.086766094 -0.0749805
0003d0 0c 90 51 bd ab c0 3d bc f7 e4 f8 3d dc 2b d7 bd
       -0.051162764 -0.01158158 0.121530466 -0.105064124
0003e0 d5 a1 ef 3d e9 b1 98 bd 63 80 ea 3d 3e f9 42 be
       0.11700789 -0.07455809 0.11450269 -0.19040391
0003f0 b9 88 14 be 9b 02 60 3e 36 66 96 be b2 34 08 be
       -0.1450528 0.21875994 -0.29374856 -0.13301352

dncnn.3.weight f4 [64]
000000 80 40 81 b8 02 88 df 39 e2 92 83 3e d0 d4 3b be
       -6.1632134e-05 0.00042635208 0.25698 -0.183429
000010 d1 e0 5e 3d a6 4f 09 3e 98 ff 99 3b 15 7b 4a be
       0.05441362 0.1340929 0.0046996586 -0.19773515
000020 bb 2d 18 bf 01 a1 72 be ef 10 e2 bd bf f7 87 39
       -0.5944478 -0.2369423 -0.11038386 0.00025933792
000030 8a 01 1c be 9b 0f aa bb da f6 09 be a4 ef 27 be
       -0.15234962 -0.0051898486 -0.13473073 -0.1640001
000040 28 83 fa ba f1 03 b4 be de f1 0f be 82 60 01 3d
       -0.0019112574 -0.35159257 -0.14057109 0.031586178
000050 3d 0e 97 3e c1 e5 01 bb f3 a1 c9 ba c1 f7 d6 3a
       0.2950305 -0.0019820782 -0.0015383348 0.0016400741
000060 27 47 12 3d 3a ae 8f 3b 64 f0 88 3e 9b 83 fe 3d
       0.035712387 0.004384783 0.26745903 0.124274455
000070 21 50 e5 3d 06 3c 6d ba dc 04 4e 3e 0b 5f 9b be
       0.11196924 -0.00090497767 0.20119041 -0.3034595
000080 ae b1 86 be c8 52 8d bb a9 81 ee 3e 7c dd 72 3d
       -0.26307434 -0.004312847 0.46583298 0.059293255
000090 53 03 99 3e 18 f9 3d be 64 59 e0 bd b9 67 4b be
       0.2988535 -0.18552053 -0.1095455 -0.19863786
0000a0 d6 74 0a be 37 41 00 bf 6d d6 e3 3c 90 85 c4 3d
       -0.13521132 -0.5009951 0.027812207 0.095957875
0000b0 ba 9e a8 3d da 69 f1 bd 55 d3 e4 3d d6 11 38 bd
       0.082334 -0.11787768 0.11173121 -0.044938885
0000c0 18 0d 9e be 1a 11 9c 3e fd de a8 3e 66 90 04 3e
       -0.30869365 0.30481797 0.32982627 0.12945709
0000d0 73 80 26 3e 17 e4 19 3a c7 6c 26 ba c2 1a 42 bb
       0.16259937 0.0005870475 -0.00063486065 -0.0029618
0000e0 9c 25 3b be 01 71 90 bd c7 80 ae b7 9f e8 30 be
       -0.18276066 -0.07052804 -2.0802383e-05 -0.17276238
0000f0 af d8 03 3e 6e 6c 06 3e ea 33 5f be 90 40 8c 3a
       0.12875627 0.131273 -0.21797147 0.0010700393

dncnn.3.bias f4 [64]
000000 70 73 07 bb 26 15 db bd 04 de 8c be 34 ba 91 bd
       -0.0020668171 -0.10697393 -0.27513134 -0.071155936
000010 94 09 af bb 90 c2 94 bd ca c4 a7 bd c1 72 f6 bd
       -0.005341718 -0.07263672 -0.081918314 -0.12033606
000020 1e 5a 25 bf dc 18 66 be e6 67 96 3c 45 e0 75 bb
       -0.6459063 -0.2247042 0.01836009 -0.0037517708
000030 b6 9c 08 bd 4b 9b 95 bd 67 b6 80 bd c9 ba dd bd
       -0.033352576 -0.073050104 -0.062847905 -0.10826642
000040 6b 0f c1 bc 97 95 98 be 88 3e 31 bd 98 66 6a 3d
       -0.023566922 -0.29801628 -0.043272525 0.057226747
000050 46 fe b4 be 68 5f c6 bc ad 7e 2c bc 53 64 6c bc
       -0.35350245 -0.024215415 -0.010528249 -0.014428216
000060 3c cd 2e 3d 5d 97 70 bd 7c e3 d4 be 93 84 ad bd
       0.042676196 -0.0587381 -0.41579807 -0.08472552
000070 0c fb de 3c d2 fa 51 bc c3 a4 16 be a1 5e b8 be
       0.027219318 -0.012816148 -0.14711289 -0.36009696
000080 30 bb 8c be 19 85 39 3e a5 15 eb be 3f c6 8f 3d
       -0.27486563 0.18117179 -0.4591495 0.07020234
000090 99 c3 9f be 79 76 c7 bd 8e bf 90 3d 94 46 65 bd
       -0.31203917 -0.09739394 0.07067786 -0.05597551
0000a0 39 c4 7a 3c c5 d7 f9 be f6 ea 7e 3d 63 ea 2f 3c
       0.015305572 -0.48797432 0.062235795 0.0107370345
0000b0 76 9a 42 3b ef c1 80 3b 18 b2 60 bd 9b 79 bb 3c
       0.0029694117 0.0039293687 -0.054857343 0.022885134
0000c0 fe 12 a5 be 91 8d a5 be 56 65 04 bf 68 14 1a 3c
       -0.32241052 -0.3233457 -0.51717126 0.009404279
0000d0 37 6a 7e bd 2f 26 da bb df d4 98 bb 62 42 55 bd
       -0.062113013 -0.006657384 -0.004664048 -0.05206526
0000e0 ec a9 4c be 70 ad 15 3d a3 98 fc bb 00 56 37 bd
       -0.19986695 0.036542356 -0.0077086254 -0.04475975
0000f0 83 50 bd bd 0b bd 8a bc 16 be a4 be 6d 5c a2 bc
       -0.09243872 -0.016935846 -0.32176274 -0.019819463

dncnn.3.running_mean f4 [64]
000000 8e a7 7e bf ed 7b 26 3e a2 24 64 41 ae 82 81 40
       -0.9947442 0.16258211 14.258944 4.047202
000010 87 f4 c7 3f 8c 46 79 bf 9c ed 38 3f a7 0c b6 3f
       1.5621499 -0.9737327 0.72237563 1.4222611
000020 95 bf 03 41 8d 30 e3 c0 88 0c 3f bf 83 4f 00 c0
       8.234273 -7.0996766 -0.74628496 -2.004853
000030 43 de 44 bd a0 a2 8e 3f 72 da 5d 3d 5e 7a c7 3f
       -0.048063528 1.1143379 0.054163404 1.5584219
000040 20 a8 9e be f2 b9 86 40 d3 a1 5b 3f 0f 78 a0 3f
       -0.30987644 4.2101984 0.857938 1.2536639
000050 89 1a 0c bf 89 84 7e bf 7c e2 0a 3f e4 8f cc be
       -0.5472799 -0.9942098 0.5425184 -0.3995353
000060 0c 39 40 c0 6b 08 fb 3f 85 91 c2 40 59 2f 5d 41
       -3.0034819 1.9611944 6.0802636 13.8240595
000070 49 3c 7a 40 16 6e 9a be 1f 59 14 c0 dc 2b 95 40
       3.9099295 -0.30162114 -2.3179395 4.661604
000080 e7 97 f4 3f 2c 4d 8e be 8b 71 89 c0 44 f4 61 be
       1.9108857 -0.27793252 -4.29511 -0.22065836
000090 81 c7 58 bf a6 42 2b 40 cd ed f8 40 be 0b b4 40
       -0.8467942 2.675943 7.7790284 5.6264334
0000a0 d6 a1 ed 40 50 3f a7 40 0b 16 2c 40 66 cd 03 c0
       7.4260054 5.2264786 2.6888454 -2.0594115
0000b0 d3 dd ca bf e9 ff 79 bf b4 a7 ac c0 df d9 68 c0
       -1.5848945 -0.9765611 -5.3954716 -3.6382978
0000c0 ca 05 13 c1 41 d5 fc 40 96 94 01 41 16 44 54 c0
       -9.188913 7.901032 8.098776 -3.3166556
0000d0 7a 9f 8b 3f 45 76 b7 be 5b a8 d6 3e 70 39 b9 be
       1.0908043 -0.3583242 0.4192532 -0.36176634
0000e0 18 9d e5 3f 4d be 84 41 22 47 ea 3d 77 33 73 be
       1.7938566 16.59292 0.11439349 -0.23750101
0000f0 dc 88 c0 40 5b a2 96 3f 45 9c e5 3f 0f 5d 81 3e
       6.0167065 1.1768297 1.7938315 0.2526631

dncnn.3.running_var f4 [64]
000000 03 d8 68 40 a3 25 7c 3f 9f 1b 08 42 bf 61 1b 42
       3.6381843 0.9849493 34.026974 38.845455
000010 8c 3c 53 41 35 4c 01 42 6b 09 b4 3e b7 82 76 41
       13.202282 32.32442 0.35163435 15.406913
000020 e2 b8 96 42 0d 9e 42 41 9a 67 f1 41 43 cd 1b 41
       75.3611 12.163587 30.175587 9.737613
000030 d5 d1 a6 41 46 34 a1 3e f4 e2 2d 41 52 02 8f 40
       20.852457 0.31485194 10.8679085 4.4690332
000040 a1 8e 37 3e ac 33 c5 41 f1 f2 4f 41 fa ef 00 41
       0.17925502 24.65023 12.996812 8.058588
000050 b7 95 aa 40 ca 8e 6e 3e df a3 3a 3e cd cf 23 3e
       5.3307757 0.23296657 0.18226574 0.15997238
000060 60 dc cd 40 1e 60 11 3f 70 db be 41 bc 40 19 42
       6.4331512 0.5678729 23.857147 38.313217
000070 4b d5 e4 41 da c9 44 3e f2 6b 18 41 ac 01 5e 41
       28.604147 0.19217625 9.526354 13.875408
000080 47 f3 29 41 18 b1 10 43 50 6e 03 42 2a 34 fc 41
       10.621894 144.69177 32.857727 31.52547
000090 b2 47 ca 40 8f 87 b9 41 fa dc 2a 42 1c cc 7d 42
       6.321252 23.19119 42.715797 63.449326
0000a0 8e 2e 24 42 06 78 27 42 55 e8 fd 40 ba 3e 15 41
       41.045464 41.86721 7.934611 9.327814
0000b0 fd 08 be 41 d5 1c 45 41 0b 65 8c 41 48 b4 f1 41
       23.754389 12.319539 17.549337 30.213028
0000c0 3e 17 e7 41 08 a5 e6 41 04 70 47 41 c3 e4 f3 41
       28.886349 28.830582 12.464848 30.4867
0000d0 3b cf 8a 41 3b fc 07 3e 5d 8d 62 3e f6 08 f1 3e
       17.351187 0.13279812 0.22124238 0.4707715
0000e0 4f 19 d1 40 e8 a8 24 42 09 75 10 3e e3 36 8d 41
       6.5343394 41.164948 0.14107145 17.6518
0000f0 00 27 5d 41 61 f7 1d 42 82 7c 9e 40 6f 37 1b 3e
       13.8220215 39.49158 4.9526987 0.15157865

dncnn.5.weight f4 [6, 64, 3, 3]
000000 3b 96 b7 3b b8 db a9 3d 46 e6 de 3b 89 8e ca 3a
       0.0056026257 0.08293861 0.006802353 0.0015453856
000010 b3 c7 a2 3d 61 5c 78 bc bf 5d 70 bc 92 b1 c4 3c
       0.07948246 -0.015158744 -0.014670788 0.024010453
000020 47 25 48 bc b2 41 9b bd 82 b7 d5 bc 1d cb 03 bc
       -0.012215919 -0.0758089 -0.02608848 -0.008044031
000030 67 f2 dc 3d 90 2a 35 3d 8e b9 b5 3d 95 3f c5 bd
       0.10788422 0.044230044 0.088732824 -0.09631268
000040 52 29 69 3d 8f 96 45 bd 26 42 98 3c 71 ec a9 bc
       0.05692417 -0.048239287 0.01858623 -0.020742627
000050 b4 91 dc 3b 65 b8 51 bc 29 07 8d 3d 1a 3c 92 bc
       0.0067312364 -0.012800311 0.06886131 -0.017850924
000060 d9 a1 76 3c 62 32 1d 3d 19 5d 2d bc dd 07 90 bd
       0.015053236 0.038378127 -0.010581278 -0.0703275
000070 76 cb c4 bd 8a 87 d8 bd 48 99 6a be 8f 5c 57 be
       -0.096091196 -0.10572727 -0.22910035 -0.21031402
000080 41 0a 4b be 17 0f 1f be dc 2b 33 be cb be 54 be
       -0.1982813 -0.155331 -0.174972 -0.20775907
000090 21 ac 21 3e 8d e2 ab 3b 96 74 ff bd 54 f9 35 3e
       0.15788318 0.005245513 -0.12473409 0.17770892
0000a0 71 ee d1 ba bd 2b 19 3d 48 4b 7a be b3 03 a4 be
       -0.0016016496 0.037395228 -0.2444278 -0.32034072
0000b0 6c 27 10 be fa 2a 42 3d 7d a8 bc bd 24 01 cc bd
       -0.14077538 0.047404267 -0.09211824 -0.09961155
0000c0 99 2e d4 3d 2b 6a ae bd 4b 15 43 be 4a 66 5f 3e
       0.1036045 -0.08516344 -0.19051091 0.21816364
0000d0 d5 70 3f bd fe 2d a9 bd 9f 45 2c 3d 76 be af 3c
       -0.046738464 -0.082607254 0.042058583 0.021453124
0000e0 b0 55 d1 bb 55 cf 26 3e 76 7f 1c bc e8 25 cb 3d
       -0.0063883886 0.16290028 -0.009551873 0.099193394
0000f0 6b 35 42 3d f3 8b 5a bc 4c 3e c4 bb af 6d 63 bc
       0.047414225 -0.013339031 -0.0059888717 -0.013881131
000100 6c 25 86 bc 03 0f d1 bc 14 64 cf 3c 3d 4d 05 3d
       -0.016375266 -0.025519853 0.025316276 0.032544363
000110 2b 82 c7 bc fd bb 87 bc 75 ea 91 3d 6c ee 8c bc
       -0.024354061 -0.016569132 0.07124797 -0.017203532
000120 1b 84 a1 3d 7e e2 98 3b 05 84 a4 3d aa e9 80 3d
       0.07886525 0.004665672 0.08032993 0.06294568
000130 b7 17 20 bd 9e 48 40 3d 9a 88 04 3e bd 8e d2 3d
       -0.039085116 0.046944253 0.12942734 0.102811314
000140 71 54 80 3d 30 34 96 be 10 27 81 be 41 0a 88 be
       0.06266106 -0.2933669 -0.25225115 -0.26570323
000150 8c 1c 86 be 09 10 3e be 13 4f 4d be 41 7a ac be
       -0.26193655 -0.18560804 -0.20049696 -0.33687022
000160 54 8d ad be 06 80 93 be 9e 33 31 3f 8c aa 09 3f
       -0.33896887 -0.28808612 0.69219387 0.5377586
000170 69 7d c7 3e a0 f0 31 3f 41 6f ed 3e 26 f5 b5 3e
       0.38962868 0.6950779 0.46373942 0.35538596
000180 a1 61 14 3f 4d e8 f6 3e 4f 20 02 3f f2 a1 5e 3d
       0.5796147 0.48224106 0.5083055 0.05435366
000190 8b b8 4e 3d ac 73 85 3d 5a 49 25 3c 80 fd 44 3d
       0.050468963 0.06516203 0.010088289 0.04809332
0001a0 97 dd ca bc 07 81 db bc 75 fd 3d 3d d0 88 9a 3d
       -0.024763865 -0.026794923 0.046384294 0.07545626
0001b0 41 c6 bb bb e9 ae b5 3d e2 b1 91 3d bc e5 7f bd
       -0.005730421 0.08871252 0.071140066 -0.06247495
0001c0 b7 c8 a0 3d 5c 87 83 3d 31 f2 20 3c be 4f bd bb
       0.07850783 0.06422302 0.009823368 -0.0057773283
0001d0 50 03 db 3d 9e 35 dc 3c 45 6c 52 bd 45 1e a7 bc
       0.10693991 0.026881035 -0.051372785 -0.020400176
0001e0 55 04 1c bc 1e 64 5d bd 9d 2d 9d bd f5 7e ab 3d
       -0.009522517 -0.054050557 -0.07674716 0.083738245
0001f0 57 0c 3c 3d ae 70 5b bd 9d de 69 bc 0f 61 30 bd
       0.045910206 -0.053574257 -0.014274267 -0.043061312
000200 a5 bc 05 3c 1b d6 09 bb d1 73 d0 3b 10 fa 4d bc
       0.008162652 -0.0021032158 0.0063614626 -0.012571827
000210 4c 3b a7 bc 0c 13 49 3c d6 24 7a bd 68 59 e8 bc
       -0.020414017 0.012272608 -0.061070286 -0.028362945
000220 a9 13 a0 bc 86 22 16 bd 7f ea c7 3c b6 1d 72 bc
       -0.019540625 -0.036654018 0.024403809 -0.014777591
000230 d4 dd 1f bd d4 cc 9a bc 72 81 eb bc 68 1d fe bc
       -0.03902991 -0.018896498 -0.028748248 -0.031019881
000240 4d 3c 5c bc ee 9f e5 bd 09 2e 70 bd e7 4f 58 bd
       -0.013442111 -0.11212145 -0.058637653 -0.052810576
000250 d2 8a 1f bd a9 54 c2 3c 83 73 cb 3d 8c c3 82 3d
       -0.03895075 0.02372201 0.099341415 0.06384954
000260 73 19 25 bc fb a8 ce be 2d 26 91 be 2d df a6 be
       -0.010076868 -0.40363297 -0.28349438 -0.32592145
000270 c0 1f 80 be 19 ca f7 bd 8a cb 2f be e0 20 8b be
       -0.25024223 -0.12099094 -0.17167488 -0.2717352
000280 49 ab c5 bd a1 f1 1b be 52 34 b1 be f8 61 a4 be
       -0.09651811 -0.15228893 -0.3461023 -0.32105994
000290 05 9d d5 be 57 61 43 be e6 e3 60 be 03 9f e7 be
       -0.4172136 -0.19080101 -0.21961936 -0.45238504
0002a0 3a af 78 be 37 b4 96 be 09 d5 e0 be 5a ed b0 bd
       -0.24285594 -0.29434368 -0.43912533 -0.08639021
0002b0 9b 20 08 3d fc a8 c8 3e 6d 94 b2 be 21 30 c7 3e
       0.03323422 0.39191425 -0.34878865 0.38903907
0002c0 28 f2 52 3e 79 2a 07 bf dd 52 1a 3e d4 48 92 3d
       0.20600188 -0.52799183 0.15070672 0.07142797
0002d0 3d e9 3a 3c 11 b8 7c 3d 6c 9b 2e 3d 49 e2 b5 3c
       0.011408147 0.061698977 0.04262869 0.022202628
0002e0 06 98 de bc 91 e8 0a 3d 8c 59 3d bc 44 a0 85 3d
       -0.0271721 0.0339132 -0.011556994 0.06524709
0002f0 9f fc 30 bb ee 6c 71 3c 50 45 3e bd 11 08 af 3d
       -0.0027006043 0.0147354435 -0.04645282 0.085464604
000300 25 6d 8b 3d 87 82 61 bd 7f d2 79 3d 0c 8c 26 bd
       0.06807927 -0.05505612 0.06099176 -0.040660903
000310 f7 e4 cf 3c 92 1f 3f bd f9 4b b4 bd c0 ed d9 bb
       0.025377734 -0.046660967 -0.08803553 -0.0066506565
000320 55 d3 23 3d 26 01 f4 3b 32 a3 00 3e 31 b6 3f bc
       0.039996464 0.007446426 0.12562254 -0.011701153
000330 28 dd 6c 3c bc ca ae 3c 3b 24 07 3d d1 4b ab bd
       0.014457025 0.021336906 0.032993536 -0.0836407
000340 84 84 b9 3d 72 96 0d be 8f 4e 2b 3d 12 bc 22 bd
       0.090584785 -0.13826922 0.041822966 -0.03973014
000350 71 0c 38 bd 4f 21 e9 3d 4e 00 1b bc 10 b9 03 bc
       -0.04493374 0.11383306 -0.009460522 -0.008039728
000360 17 dc c0 be 95 d2 0e bd f0 7d 9d 3e 9a dc 22 bd
       -0.37667915 -0.034868795 0.30760145 -0.039761163
000370 d8 66 2a 3e cf cc 80 3e 54 f4 ba be b0 9b 44 bd
       0.16640794 0.25156257 -0.36514533 -0.048000038
000380 d4 8e fa 3d b4 54 d0 bd 1b ea 81 bd f4 0b bd bd
       0.122342736 -0.10172406 -0.0634348 -0.092307955
000390 5b f4 eb 3c 24 35 10 3d a2 1b 9d bd f9 35 74 bd
       0.028803041 0.03520693 -0.07671286 -0.059621785
0003a0 a1 2d 16 3d b7 c3 bb 3d a4 92 95 bc 00 5a f8 bb
       0.03666461 0.09168189 -0.0182584 -0.007579088
0003b0 26 1a 85 bd 22 ba b1 bb 7c 17 2a 3b ec 05 86 bc
       -0.06499128 -0.0054238 0.002595394 -0.016360246
0003c0 7d a3 5a bc 9a a7 8f bc 7d 3d 1f bd 98 2f 9c 3e
       -0.013344643 -0.017535973 -0.038877 0.3050506
0003d0 18 c4 82 3e f3 f2 ec 3e 37 78 6b 3e e9 f4 48 bd
       0.25540233 0.46279106 0.22995077 -0.04906169
0003e0 41 ad 3a 3e 80 df df 3e 6d 2b e2 3e 1d cc 42 3f
       0.18230154 0.43725204 0.44173756 0.760927
0003f0 88 8c 97 3d 91 29 e0 3d 88 17 b6 bd 92 a1 8d 3d
       0.07399851 0.10945428 -0.08891207 0.06915583
